track/param.pth (torch_old, 41232 bytes, 3 tensors)

feature.0.weight f4 [32, 3, 3, 3]
0.25223008 0.22828455 0.26954177 0.299298 0.23456088 0.25923467 0.24928722 0.20996934
0.24631618 -0.12849742 -0.098312765 -0.08929756 -0.06494859 -0.07532368 -0.085749835 -0.14071484
-0.123397596 -0.1182234 -0.21788493 -0.13904144 -0.1671894 -0.13092268 -0.08479576 -0.12734005
-0.23644596 -0.16361661 -0.17746395 -0.37527162 -0.23229825 -0.23712777 -0.26139063 -0.0966554
-0.09548101 -0.29975098 -0.07783398 -0.06853273 -0.123309396 -0.019229427 -0.044523593 -0.021124162
0.1022031 0.082126476 -0.065187536 0.11776159 0.108779244 -0.15033317 -0.016362248 -0.016920157
-0.06421854 0.089688644 0.094618894 -0.12622757 0.087126695 0.10672736 0.25735366 0.11925391
0.03387827 0.1936758 0.007276569 -0.14690739 0.06248656 -0.09121038 -0.26604027 0.27848494
0.13641478 0.013808687 0.23273239 0.02593043 -0.17587453 0.112817295 -0.07240072 -0.29540023
0.23601712 0.15423436 0.06522992 0.1839815 0.0399994 -0.12253166 0.04555404 -0.07495754
-0.2605293 0.021563714 0.13274969 0.32083267 -0.08854857 0.026093861 0.25069275 -0.112171724
0.014757601 0.17251557 -0.087040335 0.082175724 0.28043646 -0.18073295 -0.008900442 0.22491612
-0.1889384 -0.0142459795 0.14426118 -0.071852274 0.054417133 0.2304698 -0.14438552 -0.013371485
0.19219877 -0.13407964 0.0026543944 0.14036135 0.004698691 0.1692547 0.13789245 -0.03230272
0.0043042507 0.037389487 -0.14430976 -0.16740535 -0.008879523 0.027506672 0.20235232 0.17833729
-0.041655716 0.007790562 0.05481798 -0.1885605 -0.19801196 -0.020909928 -0.00091159734 0.1812463
0.15729143 -0.0501249 -0.0005378122 0.0360541 -0.16465877 -0.17674176 -0.019011455 -0.07990514
0.0806409 -0.06231002 -0.0246791 0.12729685 -0.008192528 -0.06109694 0.07498124 -0.073481716
0.04107735 0.21584302 0.057394084 0.09386568 0.26312578 0.11538767 0.06373316 0.2182853
0.060630303 -0.32894066 -0.11321206 -0.33097145 -0.2607166 -0.05044241 -0.25546128 -0.3110518
-0.117650285 -0.3320761 0.029147731 0.036526926 0.04240568 0.035752498 0.03591567 0.04107971
0.01954142 0.01604456 0.022159586 -0.18893203 -0.1587395 -0.170326 -0.16590974 -0.14544632
-0.15261279 -0.16711634 -0.1557199 -0.16461992 0.1127023 0.10667307 0.11209177 0.13742259
0.12024748 0.124738246 0.16218477 0.14435992 0.14241712 0.1818332 0.18134914 0.28168184
0.18725319 0.16128491 0.2511028 0.28849885 0.23789798 0.32230446 -0.16811322 -0.16340922
-0.11583829 -0.16396008 -0.18101689 -0.14211605 -0.09489524 -0.13310166 -0.09406689 -0.01803776
-0.019282052 0.030254986 -0.030025287 -0.05180817 -0.008373525 0.027013747 -0.017665055 0.027519768
0.14204283 0.06415993 0.11004426 0.064041056 -0.01200531 0.040147424 0.09570525 0.023063743
0.06320768 0.15733795 0.0634649 0.119424336 0.07313509 -0.017985413 0.040395137 0.10312964
0.019826602 0.06553739 0.23871739 0.14485 0.20498955 0.15207107 0.059729904 0.12446646
0.18369308 0.0980239 0.15263668 0.22043845 -0.07422349 -0.13896056 -0.004007372 -0.010120005
0.024539262 -0.21138066 0.08929417 0.11088892 0.23861097 -0.08050858 -0.17189349 -0.016230965
00000000: 4d24 813e 6dc3 693e 6101 8a3e 963d 993e
00000010: ba30 703e 68ba 843e 2645 7f3e 3402 573e
00000020: 4f3a 7c3e d494 03be 3458 c9bd a4e1 b6bd
00000030: c403 85bd 4d43 9abd 9c9d afbd 8d17 10be
00000040: e1b7 fcbd 1c1f f2bd 3a1d 5fbe e160 0ebe
00000050: b333 2bbe 9810 06be 66a9 adbd 6e65 02be
00000060: e41e 72be 1d8b 27be 1cb9 35be 9a23 c0be
00000070: 98df 6dbe 9fd1 72be fed4 85be 44f3 c5bd
00000080: 8c8b c3bd f678 99be 6c67 9fbd e35a 8cbd
00000090: a389 fcbd 0887 9dbc 5f5e 36bd 940c adbc
000000a0: dc4f d13d ed31 a83d 0b81 85bd fd2c f13d
000000b0: a7c7 de3d f0f0 19be 1f0a 86bc 249c 8abc
000000c0: 0385 83bd aeae b73d 8dc7 c13d cd41 01be
000000d0: 7b6f b23d e093 da3d dcc3 833e 653b f43d
000000e0: f1c3 0a3d f352 463e 4970 ee3b e46e 16be
000000f0: e8f1 7f3d 82cc babd 6e36 88be 9495 8e3e
00000100: 51b0 0b3e d53d 623c 6651 6e3e 0e6c d43c
00000110: 7418 34be c10c e73d d446 94bd b33e 97be
00000120: 79ae 713e 9def 1d3e 4497 853d a565 3c3e
00000130: 69d6 233d e1f1 fabd e096 3a3d 5783 99bd
00000140: 1964 85be 63a6 b03c 89ef 073e 2e44 a43e
00000150: f458 b5bd cbc2 d53c cd5a 803e 4aba e5bd
00000160: ddc9 713c eca7 303e 3442 b2bd bf4b a83d
00000170: 5e95 8f3e 0f12 39be 29d3 11bc 6950 663e
00000180: 1179 41be f867 69bc 34b9 133e 4927 93bd
00000190: 80e4 5e3d 4600 6c3e ccd9 13be 1314 5bbc
000001a0: c1cf 443e 2c4c 09be 59f5 2d3b e3ba 0f3e
000001b0: 7af7 993b 1b51 2d3e ae33 0d3e db4f 04bd
000001c0: ac0a 8d3b b825 193d f0c5 13be 4f6c 2bbe
000001d0: 6b7b 11bc ac55 e13c 7235 4f3e 0d9e 363e
000001e0: 2f9f 2abd f947 ff3b d188 603d 0116 41be
000001f0: a6c3 4abe 4c4b abbc 43f8 6eba a198 393e
00000200: 0111 213e c44f 4dbd f7fb 0cba 77ad 133d
00000210: 4f9c 28be cbfb 34be e9bd 9bbc 4ea5 a3bd
00000220: 0e27 a53d cb38 7fbd d32b cabc 1b5a 023e
00000230: f439 06bc c940 7abd c48f 993d 957d 96bd
00000240: b940 283d f405 5d3e 0f16 6b3d a63c c03d
00000250: 6cb8 863e 5f50 ec3d 8886 823d 2f86 5f3e
00000260: 7b57 783d e96a a8be b9db e7bd 1775 a9be
00000270: a57c 85be b39c 4ebd d2cb 82be 2e42 9fbe
00000280: a2f2 f0bd e105 aabe 39c7 ee3c 429d 153d
00000290: 94b1 2d3d 3671 123d 4f1c 133d 3343 283d
000002a0: 5415 a03c e26f 833c 0588 b53c 6677 41be
000002b0: 9c8c 22be f069 2ebe 3ee4 29be e1ef 14be
000002c0: 8746 1cbe 8c20 2bbe 0a75 1fbe 2092 28be
000002d0: 77d0 e63d 6977 da3d 5f90 e53d 82b8 0c3e
000002e0: 5044 f63d c476 ff3d c413 263e 16d3 133e
000002f0: cbd5 113e 7b32 3a3e 97b3 393e 9a38 903e
00000300: 4dbf 3f3e df27 253e 8c90 803e 1fb6 933e
00000310: 879b 733e 1705 a53e df25 2cbe bf54 27be
00000320: a03c edbd 27e5 27be 7e5c 39be df86 11be
00000330: 7058 c2bd cd4b 08be 24a6 c0bd edc3 93bc
00000340: 65f5 9dbc 4ed9 f73c 97f7 f5bc ce34 54bd
00000350: 1c31 09bc ef4b dd3c 4eb6 90bc 2371 e13c
00000360: ad73 113e 4866 833d e35e e13d f527 833d
00000370: ebb1 44bc a071 243d 1d01 c43d 2df0 bc3c
00000380: 0773 813d 331d 213e e3f9 813d bf94 f43d
00000390: dac7 953d 2556 93bc 5f75 253d a235 d33d
000003a0: 666b a23c 7838 863d 5572 743e 8f53 143e
000003b0: c8e8 513e 85b8 1b3e 58a7 743d 45e8 fe3d
000003c0: 0a1a 3c3e c1c0 c83d ca4c 1c3e 9eba 613e
000003d0: 7c02 98bd ad4b 0ebe 4650 83bb 61ce 25bc
000003e0: 9006 c93c 2c74 58be dddf b63d bb19 e33d
000003f0: 6f56 743e afe1 a4bd d904 30be cdf6 84bc

feature.0.bias f4 [32]
0.06771915 0.015635272 0.01190473 0.010989922 0.0049441396 0.044065073 0.044666916 0.055445235
0.023520017 -0.019856425 0.06636176 0.0195123 0.0060320585 0.09701201 0.010572371 0.013031534
-0.01909248 0.038587812 -0.02380322 -0.00068652787 0.03277165 0.013726393 -0.006441594 0.044559658
0.034866672 0.08197742 0.010919983 -0.018526375 0.027781263 0.0035379033 0.051704988 0.019225543
00000000: 56b0 8a3d 8b15 803c 0f0c 433c 130f 343c
00000010: 7302 a23b 947d 343d a8f4 363d 8b1a 633d
00000020: 0dad c03c f1a9 a2bc ade8 873d 42d8 9f3c
00000030: 93a8 c53b 3cae c63d bd37 2d3c 3782 553c
00000040: d567 9cbc 410e 1e3d f8fe c2bc 1bf8 33ba
00000050: 913b 063d aae4 603c 0214 d3bb 3084 363d
00000060: 5bd0 0e3d c7e3 a73d bae9 323c a0c4 97bc
00000070: 8895 e33c 2bdc 673b 9cc8 533d e37e 9d3c

feature.2.bias f4 [32]
0.0026108082 0.0036493978 -0.028155345 0.0085895015 -0.029561084 0.0052227178 -0.003548724 0.0007001659
-0.0019032144 0.0026637414 0.0019317268 0.0068480913 0.0035570369 -0.0033919814 0.045683995 -0.0057761683
0.028828358 -0.0050639017 0.0014522981 -0.0008913222 -0.0045613633 -0.00014889766 -0.0013133899 -0.00018820562
0.00053113716 0.004333235 0.017693125 -0.0019248945 0.0001522887 -0.0025069136 0.0016562005 -0.0021868683
00000000: 181a 2b3b bc2a 6f3b 0aa6 e6bc fbba 0c3c
00000010: 162a f2bc 5523 ab3b b691 68bb 578b 373a
00000020: 4775 f9ba 2a92 2e3b ff31 fd3a f465 e03b
00000030: 2d1d 693b 014c 5ebb 241f 3b3d 0346 bdbb
00000040: 7329 ec3c 16ef a5bb 0a5b be3a 9fa7 69ba
00000050: 7d77 95bb 6921 1cb9 0d26 acba 1059 45b9
00000060: 033c 0b3a cffd 8d3b 2cf1 903c be4c fcba
00000070: b0af 1f39 084b 24bb de14 d93a 9051 0fbb
